…
2019-09-25 20:55:47,167 | TRAINER INFO: Total available training instances: 9928
2019-09-25 20:55:47,168 | TRAINER INFO: Using 5-Fold Cross Validation.
2019-09-25 20:55:50,971 | TRAINER INFO: Restored model and optimizer settings.
2019-09-25 20:55:50,972 | TRAINER INFO: Resuming training from following checkpoints: ['C:\\AML_seg_proj\\CRC-Segmentation\\model_affine\\model_chkpt_75.pt', 'C:\\AML_seg_proj\\CRC-Segmentation\\model_affine\\optimizer_chkpt_75.pt']
2019-09-25 20:55:50,972 | TRAINER INFO: Model: NeuralNet(
  (dropout): Dropout(p=0.33, inplace=True)
  (pool): MaxPool2d(kernel_size=2, stride=2, padding=0, dilation=1, ceil_mode=False)
  (convin1): Conv2d(3, 64, kernel_size=(3, 3), stride=(1, 1), padding=(1, 1))
  (conv12): Conv2d(64, 128, kernel_size=(3, 3), stride=(1, 1), padding=(1, 1))
  (conv23): Conv2d(128, 256, kernel_size=(3, 3), stride=(1, 1), padding=(1, 1))
  (conv34): Conv2d(256, 512, kernel_size=(3, 3), stride=(1, 1), padding=(1, 1))
  (conv45): Conv2d(512, 1024, kernel_size=(3, 3), stride=(1, 1), padding=(1, 1))
  (conv54): Conv2d(1024, 512, kernel_size=(3, 3), stride=(1, 1), padding=(1, 1))
  (conv43): Conv2d(512, 256, kernel_size=(3, 3), stride=(1, 1), padding=(1, 1))
  (conv32): Conv2d(256, 128, kernel_size=(3, 3), stride=(1, 1), padding=(1, 1))
  (conv21): Conv2d(128, 64, kernel_size=(3, 3), stride=(1, 1), padding=(1, 1))
  (conv1out): Conv2d(64, 3, kernel_size=(1, 1), stride=(1, 1))
  (conv11): Conv2d(64, 64, kernel_size=(3, 3), stride=(1, 1), padding=(1, 1))
  (conv22): Conv2d(128, 128, kernel_size=(3, 3), stride=(1, 1), padding=(1, 1))
  (conv33): Conv2d(256, 256, kernel_size=(3, 3), stride=(1, 1), padding=(1, 1))
  (conv44): Conv2d(512, 512, kernel_size=(3, 3), stride=(1, 1), padding=(1, 1))
  (conv55): Conv2d(1024, 1024, kernel_size=(3, 3), stride=(1, 1), padding=(1, 1))
  (upconv1): ConvTranspose2d(1024, 512, kernel_size=(2, 2), stride=(2, 2))
  (upconv2): ConvTranspose2d(512, 256, kernel_size=(2, 2), stride=(2, 2))
  (upconv3): ConvTranspose2d(256, 128, kernel_size=(2, 2), stride=(2, 2))
  (upconv4): ConvTranspose2d(128, 64, kernel_size=(2, 2), stride=(2, 2))
  (inst_norm1): InstanceNorm2d(64, eps=1e-05, momentum=0.1, affine=True, track_running_stats=False)
  (inst_norm2): InstanceNorm2d(128, eps=1e-05, momentum=0.1, affine=True, track_running_stats=False)
  (inst_norm3): InstanceNorm2d(256, eps=1e-05, momentum=0.1, affine=True, track_running_stats=False)
  (inst_norm4): InstanceNorm2d(512, eps=1e-05, momentum=0.1, affine=True, track_running_stats=False)
…
